cnn.pth (torch, 250887 bytes, 10 tensors)

conv1.weight f4 [6, 3, 5, 5]
00000000: 4edf e03c fda3 b5bd 364f 34be deec 46bd
00000010: 900d 783e 8aad de3d 3659 9abc 4ed8 7cbe
00000020: f3f9 0c3c 7776 813e 293c bf3d c6cc 13be
00000030: 94ab a5bd 3d5a adba 6c08 883d 33c3 05bd
00000040: e41a febc 175c 243d f67c e6bc 59c7 8a3d
00000050: 61f8 2d3b 31fb 84bc 2060 37bd a354 84bd
00000060: 0350 4cbd 722b 0e3e 5456 cb3c fdac 18be
00000070: f142 bebc f566 813e 8b8e f33d 9718 e9bd
00000080: 6ae6 f4bd 662c e5bd b0a8 de3d f833 2a3a
00000090: 4ffc ca3c 5f69 e6bd aa8f 753d 328b 093e
000000a0: 6589 7dbd de18 90bc bdf2 a6bd b36c ba3d
000000b0: 00b9 95bc 304c 86bd 4ce8 833c 878c 7fbb
000000c0: b7e3 32bd 8da9 743d 7dcc 073e 13e2 0cbd
000000d0: 0020 83be 9613 a5bd fc9c fc3d c8ff c93d
000000e0: 3074 11be 3395 4bbe 0718 cd3d c0c3 913e
000000f0: 34e9 d63d c8b9 08be 95f8 72be 4afd d4bd
00000100: 91e7 823e eb10 11bd e8bb 0abe 21ce 6d3d
00000110: 322f 4b3c 57dc 42bd 4996 8cbd b971 14be
00000120: 2d1f 19bc 49a8 6c3c 51ea debd 373d 803d
00000130: 3b08 01bb 3ece da3c d6da 893c bb38 8ebd
00000140: 01c6 523e b993 a23c 9dcb b1bd 771c d0bd
00000150: 6b7b 5a3d 3fd3 443e a03c f33d cab0 2c3c
00000160: 6dcb 1abe e7a7 09be 7c17 083e 40a6 2dbb
00000170: 4117 323d ab22 06be c03d 16bb 0403 0b3e
00000180: a60c cf3d 43e6 8c3a 9bfa 34bd 496f 6fbd
00000190: 5bfd 383d 3149 5fbd fac7 1ebd 0b65 9abd
000001a0: 435f 58be 7a51 fc3d 0eb6 c43d 7b35 fcbd
000001b0: 994f 14be b894 17be 2421 ea3d 3d73 6f3d
000001c0: 4e8e bbbd 0563 a4bd 6437 48be ce6f 123e
000001d0: 5e4b 003e ae1e 0bbe 708a b5bd f401 c3bd
000001e0: 9e81 eb3c 7852 6bbd 8aef 0abd 1eea 39be
000001f0: f816 613c a064 ec3c d290 043e c789 993d
00000200: cc3c adbd 5d72 aa3c 108a 3f3e 8ba6 df3d
00000210: aa5f d5bd 2087 27be 8914 f8bc c521 883e
00000220: 2bc7 443d c0d5 82bd d265 d6bd a08d 1f3d
00000230: c6c6 2b3e e7a3 8d3c f40a a03d 1228 33bd
00000240: ba89 15be d6d6 4f3e 24ee 1d3e 0ec6 29bd
00000250: 9dbd 1ebd 09cb dabd de14 a3bd f98f da39
00000260: ba37 8b3d d96b 9bbc 9931 8b3d efdb e73d
00000270: 8bf3 ea3c 38c1 d43d 6c9d 9b3d 8c5e 83bd
00000280: 53e6 833d 2c05 8f3d e33c d13d f2aa 8f3d
00000290: f55d f43c c052 293c f862 093e a5e3 423d
000002a0: edfc 07bd 616f 79bd 8d17 983c 54d8 783d
000002b0: 8d09 423d d04c 81bd dc78 aabd 85c0 823d
000002c0: 4c8d 763d 50cf 0a3e de92 683d 2293 02bd
000002d0: 3d2e a4bd 0ba1 153c 3e3b 9a3d 24ac 323d
000002e0: 9b97 b63c a038 ee3c 9468 a1bd 69a8 ddbc
000002f0: 20fa a43d 6d1f 2fbd 5b76 b3bd 8fa6 123d
00000300: 039c b6bd 0092 1c3d 76ff 2abd c919 adbd
00000310: 8ad0 ddbc c6e1 313d 55a9 943d a1d9 263d
00000320: 05b4 033e 052a 333e 09b6 543e 5aa1 fe3d
00000330: 4f22 4a3e ea0b 1f3e 3501 903e 9a83 253e
00000340: 66d8 473e dfc6 f83d c7bf 7b3c 4340 103e
00000350: c3a4 843e 16c2 2d3e acbc 28bc 1f06 323e
00000360: b963 d53d 0c1c 3d3e 79de 363d 8e68 adbc
00000370: 4133 193d 061c 4d3e b743 aa3c 5bd4 453d
00000380: 6caf c33d e99c d5bd f51b 21bd d010 13be
00000390: 1414 4cbe e3cd a8bd 1131 40be b019 55be
000003a0: 36db 1bbd 1184 9bbd acc1 93bd cfa0 dabd
000003b0: 96bc 4abe bdb4 96bd be5d 27be 4b6a e5bc
000003c0: ddfd 43be a8f8 14be 827a 8cbd 1051 8fbd
000003d0: 05cd 4abe b200 39bd a4d2 83bd d5da 61bc
000003e0: cee2 39be 9c2d 16be 7c34 5b3d d39c 58bd
000003f0: 9e07 cc3b 1439 303c 407c 3cbc 13ba 333d
0.02745023 -0.08869169 -0.17608342 -0.048565738 0.24223924 0.10872944 -0.018841367 -0.24691889
0.008604514 0.25285694 0.093376465 -0.14433584 -0.080893666 -0.0013225746 0.06642231 -0.03265686
-0.031018682 0.040126886 -0.028135758 0.06776304 0.002654575 -0.016233059 -0.044769406 -0.06461456
-0.049880993 0.1388376 0.024821438 -0.1490974 -0.02322528 0.25273862 0.11892422 -0.11381643
-0.119580105 -0.11190109 0.10872018 0.00064927293 0.024778513 -0.11250567 0.05995146 0.13432005
-0.061898608 -0.017589983 -0.081517674 0.09102764 -0.018276691 -0.065575 0.016101979 -0.0038993673
-0.043674197 0.05973201 0.132616 -0.03439529 -0.25610352 -0.08060376 0.1233463 0.098632395
-0.14204478 -0.19881134 0.100143485 0.28469658 0.10493699 -0.1335212 -0.23727639 -0.103998736
0.25567296 -0.035416525 -0.13548243 0.058057908 0.012401389 -0.047573414 -0.06864602 -0.14496507
-0.009345812 0.014444419 -0.10884536 0.06261676 -0.0019688744 0.026709672 0.016827982 -0.06944414
0.20583345 0.01984583 -0.08681414 -0.10161679 0.053340357 0.19221209 0.11876798 0.010540197
-0.15116663 -0.13442956 0.13290209 -0.0026496798 0.043479208 -0.13099162 -0.002292499 0.13575369
0.101098344 0.0010749776 -0.04418431 -0.05845574 0.045163494 -0.05451316 -0.03876493 -0.07538804
-0.2113009 0.12320228 0.09605037 -0.12314888 -0.14483489 -0.14802825 0.11432102 0.05845951
-0.09158002 -0.08026699 -0.1955238 0.14300463 0.1252875 -0.13585922 -0.088642955 -0.09521857
0.02874833 -0.057451695 -0.03391985 -0.18155715 0.013738386 0.028856575 0.1294587 0.07496982
-0.08458862 0.020806486 0.1870501 0.109204374 -0.10418637 -0.1636014 -0.03028323 0.26588264
0.048041504 -0.06388426 -0.104686394 0.038953424 0.16775045 0.017290069 0.07814589 -0.043739386
-0.1460332 0.20296797 0.15422875 -0.041448645 -0.038755048 -0.10683257 -0.079629645 0.00041687468
0.067977384 -0.018972324 0.067965694 0.11321246 0.028680583 0.10388416 0.07598385 -0.06414518
0.06440415 0.06983408 0.10216691 0.07015027 0.029829958 0.010334671 0.1341666 0.04758038
-0.033200193 -0.060897235 0.018565917 0.06075318 0.04737239 -0.06313479 -0.08323833 0.063843764
0.060193345 0.13555646 0.05678069 -0.031878598 -0.08016632 0.009132634 0.07530831 0.043621197
0.022289088 0.029079735 -0.07881275 -0.027057843 0.0805552 -0.04275458 -0.08762809 0.035803374
-0.089164756 0.038225174 -0.041747533 -0.08452184 -0.027076978 0.043428205 0.0725886 0.04073489
0.12861641 0.17496498 0.20772566 0.12433119 0.1973965 0.15531889 0.2812592 0.16163483
0.19516143 0.12147307 0.0153655475 0.14087014 0.25906953 0.16968569 -0.010298889 0.17385148
0.10419411 0.1846773 0.04464576 -0.02116802 0.037402395 0.20030221 0.020784242 0.04829822
0.095549434 -0.10430319 -0.039333303 -0.14361882 -0.19929534 -0.08242395 -0.18768717 -0.2081058
-0.038050853 -0.07593549 -0.07214674 -0.10675203 -0.19798502 -0.07358692 -0.16344354 -0.028004786
-0.1913981 -0.1454798 -0.06859304 -0.06997883 -0.19804771 -0.04516668 -0.06436661 -0.013785084
-0.18152925 -0.14665836 0.05351685 -0.052883934 0.006226494 0.010755796 -0.011504233 0.043878626

conv1.bias f4 [6]
00000000: 7f8a d63e f611 52bd cf2c c53e 4032 d83e
00000010: d9aa 2abe 0355 773e
0.4190254 -0.05128666 0.3851075 0.42225838 -0.16666736 0.24153523

conv2.weight f4 [16, 6, 5, 5]
00000000: 119c 783c 5d99 ebbc 828a 90bd f0b1 043b
00000010: be5f 14bd 8970 cd3d cdba c03d 91d3 3bbc
00000020: 10bd a0bd 017f 063d 6638 d03c 49bc 833c
00000030: 9f65 5d3d cebb 95bd dc3b c5bd 4f30 4bbc
00000040: 7c1e 5e3b 1e7f 8cbd 1b5b 633d 665a 323d
00000050: 4a80 a03d 9b0a 59bd 2130 a03d 6a7a b23c
00000060: fee1 a5bc cd24 f1bc 7eec afba 5ac1 a73d
00000070: 6735 bf3d b484 dd3d 1a8d 7f3d 22f0 43bd
00000080: 72ba d1bc 2cbd 2fbd 1696 78bd 5fa2 2fbd
00000090: 1157 5ebd 3f12 67bd 1983 403d d5dd 10bd
000000a0: 61f3 3dbd 1930 883d 59f3 f63c 01c1 40bd
000000b0: 3ded b93d 9af3 953d 4c45 00bd 432a 483d
000000c0: 2ea1 5b3d e326 bebc f0ba bdbd aa96 9cbc
000000d0: 207b b43c 43c6 a73d 5aa2 cf3d 6284 41bd
000000e0: 48d0 843a d7d0 233d 7636 d3bc 88e3 103e
000000f0: 3d4f d6bd 18ef 10bd 34cd 183d cab9 32bd
00000100: a508 953d d735 553b 727a 54bd 0eab b1bd
00000110: 7af5 263d fa24 c93c a055 a6bd 9a71 6dbd
00000120: b0db 0b3d 2dd5 a5bd d115 c03c fadf 1ebd
00000130: 89fb 453b a02b 8a3d 45f0 9f3d d433 b33d
00000140: fc63 dcbc 3d44 97bd 4932 023c f29b e43a
00000150: 25d5 9ebc d2ed 9d3d 493e 8bbc 9a43 2ebd
00000160: ea68 a63d 6141 a33d 11d0 123d e17e 313d
00000170: b576 4dbd 533b 4bbd 8b24 a23d 2d5a c33d
00000180: 5ebc 993d aa22 503d f65e c43d b27b 12bd
00000190: 95d7 8b3d 11d6 8b3d 60d0 173c e7b5 9cbd
000001a0: 6c03 6bbd 6a8a 613d bf15 243c 3af1 213d
000001b0: 38a8 113d 3125 10bd 33b3 04bd e705 a63c
000001c0: 72e3 6b3c ea4a 063c 22a5 69bd 2c88 95bd
000001d0: 5450 7bbd 1658 043d 1634 8ebd a1ed 883c
000001e0: ba76 febc 72bb 6ebd ee85 3d3d 7ccb aebd
000001f0: 2890 4f3d e03e 323d 7f20 75bd bb6f ad3d
00000200: 1700 bfbc 2a2f 00bd 1771 803c f0bd 9cbd
00000210: 5924 363d b276 43bd 0a3a afbd 6244 b0bd
00000220: c59d 35bd 6809 adbc 09d4 9f3d 7bd4 89bd
00000230: d8e6 9bbc 784f 0bbd 066a 763c 44f9 c6ba
00000240: 26fc aabb 544c 05bd f267 273d 2028 5abd
00000250: 24c9 f13c 154f 9fbb 8d8c 533c e9f2 e1bd
00000260: eeca a6bc 47c4 573d 8322 a53d f2d5 a6bd
00000270: cc79 dabd 2cc3 433d e729 ab3d 8428 2abc
00000280: 8f3f c53d 5a7b 4cb9 d0b9 563d 938b 88bc
00000290: 5826 853d 3206 1b3d 8ba5 0cbc 3c51 13bc
000002a0: 59ec 89bc 65d7 e73b b506 3d3e 2d16 153e
000002b0: 8ae3 3a3d 4152 b73d f5ec 0b3e 239c 983c
000002c0: cdb7 f73c b261 923d bec2 403d b57d 1fbd
000002d0: fd83 95bd 4069 963d 36a8 1b3d 3e6f fe3d
000002e0: 0610 6ebd b364 923d afc8 853d eba9 813d
000002f0: a609 f3ba 6383 2cbd 063b b4ba 354d ea3c
00000300: b045 ae3c 18a0 8c3d 077d 8e3d c1a9 693d
00000310: c103 823d 4431 823d 7f47 13bd 8d73 803d
00000320: 75c5 8d3c 770f c33d 16e7 123b b481 8b3d
00000330: 1aaa dabc 6f03 353d d989 c33d fa92 873d
00000340: 4c4d 7ebd 2f11 ff3c 1ca4 a2bc 642c be3c
00000350: f31f afbc fe86 323d acd3 2338 3f73 dbbc
00000360: 9e81 413b 5a57 273d 4bf1 863d de75 083a
00000370: 1fde f53c 1906 1b3a d74f 043e 47f0 b93d
00000380: ccfb a6bd 2b60 323c 9fd2 f63d dbed 993d
00000390: b20d c43d 36b9 bc3c 2fe3 033e 6e4b dc3d
000003a0: 77b5 913c 8a8b 8f3d 4185 eebc 2c7b 073e
000003b0: 4510 dd3d 9179 b83d 8618 523d 8c64 e9bc
000003c0: 0c8f da3d 0176 fb3d 4c0e 7e3c 0862 8fbc
000003d0: 27cc 213c 1710 c4ba 5dc4 cf3c 33a9 883d
000003e0: 7f1d b73c 7353 ae3d 4e6d 26bd cdfc e2bd
000003f0: 5f3b 21ba 2175 dc3a 7b5c 89bc 8191 5abd
0.015173928 -0.028759653 -0.07057668 0.002024766 -0.03622412 0.1003123 0.094106294 -0.011464016
-0.07848561 0.032835964 0.025417518 0.016080992 0.05405199 -0.073112115 -0.09630558 -0.012401654
0.0033892682 -0.06860183 0.055506807 0.043543242 0.07836969 -0.05298863 0.0782168 0.021786887
-0.020249363 -0.029436493 -0.0013421921 0.08191176 0.093363576 0.10816327 0.062390424 -0.04783643
-0.0256016 -0.042905018 -0.060690008 -0.04287946 -0.05428225 -0.056413885 0.047000024 -0.035367806
-0.046374682 0.06649799 0.030145334 -0.047059063 0.09078453 0.07321854 -0.031316087 0.04886843
0.05362051 -0.023211902 -0.09264171 -0.019114811 0.022031367 0.08192112 0.10138388 -0.04724539
0.0010132873 0.039994087 -0.025782805 0.14149296 -0.10464332 -0.035384268 0.037305072 -0.043634214
0.072770394 0.0032533312 -0.051874585 -0.08675204 0.04076145 0.024553765 -0.081218004 -0.057969667
0.034145057 -0.08097301 0.023447903 -0.03878782 0.003020974 0.06746602 0.078095 0.0875012
-0.026903145 -0.07386062 0.007946559 0.0017441495 -0.019388745 0.07711376 -0.016997473 -0.04254494
0.081254795 0.079714544 0.03584296 0.04333389 -0.050162036 -0.049617123 0.07917126 0.09538684
0.07506631 0.05081431 0.09588425 -0.035762496 0.068282284 0.06827939 0.009265989 -0.076518826
-0.05737631 0.055063643 0.01001495 0.039536692 0.035560817 -0.03519172 -0.03239746 0.020266486
0.014397489 0.008196572 -0.05704225 -0.07301363 -0.061355904 0.032310568 -0.06943528 0.016714873
-0.031062473 -0.05828423 0.046270303 -0.08534905 0.050674587 0.043516994 -0.059845444 0.084685765
-0.023315473 -0.03129498 0.015678925 -0.07653415 0.044468258 -0.04772062 -0.08555992 -0.08606793
-0.044339914 -0.02112265 0.07804114 -0.067299806 -0.019030973 -0.034011334 0.015039926 -0.0015180488
-0.0052180467 -0.032543495 0.040870614 -0.053260922 0.029514857 -0.0048617222 0.012911928 -0.110326596
-0.020360436 0.05267742 0.08063223 -0.081462756 -0.10667762 0.047793552 0.083576016 -0.010385636
0.096312635 -0.00019500908 0.0524233 -0.016668117 0.06501454 0.037847705 -0.00858439 -0.008991536
-0.016836332 0.0070752376 0.1845959 0.1455924 0.045627154 0.089512356 0.1366461 0.01862914
0.03023901 0.0714754 0.04706072 -0.038938243 -0.073005654 0.073442936 0.038002215 0.124235615
-0.05812075 0.07148113 0.06532418 0.063312374 -0.0018542304 -0.042117488 -0.00137505 0.028601268
0.021273464 0.06866473 0.06957441 0.057046656 0.06348372 0.06357053 -0.035956856 0.062720396
0.017306069 0.09524434 0.002241557 0.06811848 -0.026692439 0.044192728 0.09547777 0.066198304
-0.062085435 0.031136123 -0.019853644 0.023214526 -0.02137754 0.04358577 3.9059363e-05 -0.026788352
0.002952672 0.04085479 0.06588992 0.0005205552 0.030013142 0.00059136894 0.12921081 0.090790324
-0.08153495 0.010887186 0.120518915 0.075160705 0.09572925 0.023037534 0.12879632 0.107565746
0.017786724 0.07009037 -0.029116275 0.1323058 0.10794119 0.09007562 0.05129292 -0.028490327
0.10671815 0.12278367 0.015506338 -0.0175028 0.009875334 -0.0014958408 0.025362188 0.06672897
0.022352932 0.085120104 -0.040631585 -0.11083374 -0.00061505096 0.0016819575 -0.016767731 -0.05336142

conv2.bias f4 [16]
00000000: bd46 a13b 5c51 eb3d 1134 73bc 1501 a63d
00000010: d070 fc3d 0125 2dbe a9d4 a63d 8fd6 653e
00000020: 9b07 94bc 1300 b5bd 99d8 ccbd 197a c5bd
00000030: 5e9d 643d 08d7 4abe 8d7f 3fbe 510b 35bd
0.0049217627 0.114901274 -0.014843957 0.08105675 0.12326205 -0.16908647 0.081460305 0.22445129
-0.018070033 -0.08837905 -0.1000225 -0.09642429 0.05581414 -0.1980859 -0.18701 -0.044200245

fc1.weight f4 [120, 400]
00000000: 9c04 c33c 2ff6 7abc 8c14 e93b 7b48 33bd
00000010: 203c 17bd 51f2 0e3d cae9 b03c 5a4e 103d
00000020: 1901 c3bb c175 6a3c 27c2 86bc 0c36 e1bc
00000030: 5963 17bd d8b2 393d 149f 943c 0c14 5ebd
00000040: b7e8 c63c 3e47 a33b b796 1f3d 6dcb 3ebd
00000050: 48d5 293b 27ab 1cbd 0cf4 e6bc fb68 64bc
00000060: 5420 9abc eb3e f1bc eb22 083d 75f1 8e3c
00000070: e533 963c 0116 7b3c dc3b f8bc 5490 043b
00000080: ba83 5b3c bd67 27bd d83c 373c 7b92 e83c
00000090: df65 c6bc 4014 ff3c 8807 8c3c a47e ba3c
000000a0: ffdb eabc 8e45 f33b 3f12 38bd 7430 59bd
000000b0: f374 0bbd 9e8a 37bd fb8a 73bd 7b14 2abd
000000c0: ce0f 53bd 335d 60bd d953 0ebb 9bce 5dbd
000000d0: d732 2ebd 4a96 e93c f102 a13c fb26 643c
000000e0: c3ec cf3c 0a2a 39bc 6f5c 2ebd 49b5 24bc
000000f0: 63fa abbc 3289 cfbc 4882 00bd df20 bb3c
00000100: 1cf5 3dbc f8c1 5d3d 7a21 fe3c 83d6 2dbd
00000110: 93a8 49bc ddcf 72bc fd98 a4bc 4502 293d
00000120: 3938 30bc 3368 733c cd5e efbc ded1 ccbd
00000130: 6e18 7abd c4e3 1a3b 764b 913c 3c09 81bd
00000140: 2942 1dbd a71d 5bbb 9d70 953c 7c7a 14bd
00000150: 04ce e3bb 90a2 56ba c976 c5bb 69e1 283c
00000160: c20d 3e3d 4d8a 9b3c 54f4 6abd 7b52 07bd
00000170: 2f7f 8bbb de5d b7bc bb0f 1fbb ef65 eebc
00000180: 2224 3fbd a6a2 68bb bb1b f9bb 1d6a 133b
00000190: b7b8 723d b1b7 f6bc 0bb4 153d 042a e2bc
000001a0: fe6c dd3c 16ab 75bc f200 12bd 8fd9 153a
000001b0: 65c8 02bd 1555 803d 1571 b03b 0539 27bb
000001c0: 5a19 f73c b975 10bd c577 213d 51e8 473d
000001d0: 0936 72bc ddee 4a3d 9dca 75bc 1733 2b3c
000001e0: f822 0d3d ee22 7c3d 02b7 a23d 29df 563d
000001f0: e0a6 7b3d 3d19 6a3c fa37 06bd 1d36 bdbc
00000200: a193 343d c93e 44bb 42e6 063c 29dd 853c
00000210: ca97 b33a 374e 12bd 177c e83c dde6 73bc
00000220: 0865 0abd b015 cebb dea3 4e3d 75a1 a4bc
00000230: f9b1 a5bc ead9 06bc f945 243d eb23 d03b
00000240: a78d 3abd cad0 c33c bc7e bb3b 4eb1 213d
00000250: b3f2 ae3c aa56 a13a 1e46 93bc ebd6 f7bb
00000260: 0cd1 2a3d 5a8f 08bd 9f58 f9bc d03a ccbc
00000270: ce7c 05bc a8f9 70bc ca6d 9b3c e247 09bd
00000280: 91e4 4a3d b89f e9bc cc16 473c 2678 d13c
00000290: 851a 1d3d 1b69 213d d2fb e63c f7c7 ed3c
000002a0: 33b8 1b3c 9cf8 d7bc b6d9 643c 21c7 b13c
000002b0: 07ea b7bb 89f1 423b 8e63 2bbd ccde 0cbd
000002c0: 038b 19bd c814 463d 773d 043d 9dc7 2a3d
000002d0: 0815 12bd 0290 d13c 75c6 06bc a996 c83c
000002e0: d316 bb3c 6ddd f3bc 0c4f b43c 9b60 273d
000002f0: 28a5 e7bb 1bb4 45bc da24 90bc e9cd 133d
00000300: 505f bb3c 8c34 9a3c 1690 2dbd 0fc4 253d
00000310: 070c e23c cebe 5bbd e2a7 65bc 7a40 9d3c
00000320: 2aec d83c ed95 01bd 3cc9 8e3c c49a 733c
00000330: 0d9a d33b d26d 623d 92f2 20bd 16cc 0d3d
00000340: 815b fb3c 80e0 6a3d 089e cf3c 0148 803c
00000350: 6283 053c 00bc 413b f766 f23c 93a2 84bc
00000360: 2216 67bb d4ac 563d fcb8 1e3d ec95 f5bb
00000370: 52f4 223c 30f9 853d b25a 8a3d 0c5c 773c
00000380: 63ce 9ebb ea9c b13b fb12 673c b9d0 4abd
00000390: 94cf 19bd f941 123d f6cd 46bd 623a 343a
000003a0: 6b2e dfbc f4bb c53c c8e4 44ba 6764 14bc
000003b0: 57e4 a0bc 8220 793b 36cb 0a3d 7ef6 213d
000003c0: 18ce 453d 79c3 813d bbe9 913c 7585 e83c
000003d0: 7b0b 203d f4db 973c 0fb5 6e3c dcf6 b43c
000003e0: 201a 3b3d 3dc3 743d 3da7 e5bc 5cee 27bd
000003f0: c3f7 bb3c 9544 0dbd 26fa b7bc 97fd 9ebc
0.023805909 -0.015317484 0.007113045 -0.043770295 -0.036922574 0.03489906 0.021595854 0.035230972
-0.0059510586 0.014310301 -0.01645 -0.027491592 -0.03695998 0.045336574 0.01814226 -0.054218337
0.024280889 0.004982858 0.038962092 -0.04658072 0.002591448 -0.03824916 -0.028192542 -0.013941045
-0.018814243 -0.029448947 0.033236425 0.01744912 0.018335292 0.01532507 -0.03030198 0.0020227628
0.013398105 -0.040870417 0.01118394 0.02839016 -0.024218498 0.031137586 0.017093435 0.022765465
-0.028669355 0.007424063 -0.044939276 -0.053024724 -0.03404708 -0.04480993 -0.059458714 -0.041523438
-0.051528744 -0.05477638 -0.0021717458 -0.054152112 -0.042528953 0.028514046 0.019654723 0.013925309
0.025381451 -0.011301527 -0.04256862 -0.010052987 -0.020993417 -0.025333975 -0.031374246 0.022842823
-0.011594083 0.05414006 0.031021822 -0.042440902 -0.012308258 -0.014820066 -0.020092482 0.04126193
-0.010755592 0.014856386 -0.02922001 -0.100009665 -0.061058454 0.0023634294 0.017736178 -0.063005894
-0.038393173 -0.0033434422 0.018242175 -0.036249623 -0.006952049 -0.0008187676 -0.006026123 0.010307648
0.04639984 0.018986845 -0.057361916 -0.033037644 -0.004257105 -0.022383627 -0.002427085 -0.02910134
-0.04666532 -0.0035497337 -0.0076021827 0.0022493668 0.05925819 -0.030116888 0.036548655 -0.027607925
0.02702951 -0.014994403 -0.035645433 0.00057163177 -0.031929392 0.06266228 0.005384574 -0.0025516164
0.030163456 -0.03526852 0.03942086 0.04880554 -0.014783391 0.049544204 -0.01500192 0.0104491925
0.034457177 0.06155675 0.07945062 0.052458916 0.06143844 0.014288244 -0.032768227 -0.023097092
0.044086102 -0.002994465 0.008233609 0.016340809 0.0013701853 -0.035719123 0.028379483 -0.014886585
-0.033787757 -0.0062892064 0.050449245 -0.02009652 -0.020226466 -0.008230666 0.040105794 0.006351938
-0.045545246 0.02390327 0.005721895 0.03947573 0.021355962 0.0012309153 -0.01797777 -0.007563462
0.04170327 -0.033339836 -0.030437766 -0.024930388 -0.008147432 -0.01470796 0.01897325 -0.03351582
0.049534384 -0.028518543 0.012151431 0.025569987 0.03835537 0.039406877 0.02819625 0.029026015
0.009504366 -0.026363663 0.013967922 0.021701397 -0.005612615 0.0029746017 -0.04184299 -0.034392163
-0.037486088 0.048359662 0.03228518 0.041694272 -0.03566459 0.025581364 -0.008226027 0.024485903
0.022838032 -0.02976867 0.022010349 0.040863615 -0.0070692487 -0.012066866 -0.017595697 0.036085043
0.022872597 0.018823884 -0.04237374 0.04047018 0.027593626 -0.053648762 -0.014017077 0.019195784
0.0264798 -0.03163712 0.01742994 0.014868442 0.0064575733 0.055280514 -0.039293833 0.03461846
0.03068328 0.057343006 0.02534391 0.015659334 0.008149 0.002956152 0.029590113 -0.016190803
-0.0035260995 0.052410915 0.038750634 -0.0074946787 0.009945946 0.06541669 0.0675558 0.015097629
-0.0048463806 0.005420317 0.014103646 -0.04951546 -0.037551478 0.035707448 -0.048536263 0.0006875155
-0.027243813 0.024137475 -0.00075108977 -0.009057141 -0.01964013 0.003801376 0.033885203 0.039541714
0.04829225 0.063361116 0.017811647 0.02838395 0.03907345 0.018537499 0.014569535 0.022090368
0.04567921 0.059756506 -0.028033847 -0.0409988 0.02294529 -0.034489233 -0.022458147 -0.01940803

fc1.bias f4 [120]
00000000: ab84 c53c a561 cc3d 3fb9 09bd bc86 973b
00000010: 84e4 8fba 8150 a8bc c49e 2a3d f155 f73b
00000020: 3f37 12bd d237 d73d 9d39 153c 65f1 a03c
00000030: ca51 8abc 9d22 18bd e7e1 813d 9136 613c
00000040: b3b1 2ebd 380e f03d 06cc 02bd 4e3c ab3d
00000050: fe9c 99bd 1bc6 0a3d 074a 683d a99d 943d
00000060: c0ce 8d3b a8c2 a83d 7be0 62bb dddb bc39
00000070: b392 c33d 26db 38bd 97e5 67bc 2bb4 1abd
00000080: 2c0f fb3c 0d9c ae3d a8d4 dbbb 369f 29bc
00000090: e554 08bd de3d fb3c 010c 3e3d 91fd 0f3c
000000a0: 8c70 1dbc 9446 26bc 6afc bebb a6b0 a23c
000000b0: 9a62 463c e94d 7fbd 0066 d03c 8dfc 36bd
000000c0: e6e8 963d 920f 0ebb fc53 1fba 442d 963c
000000d0: f2bd 24bc de4c 133a 9ec6 1bbd d5a6 a2bc
000000e0: a7cf f93b 5a37 25bd 1bcf 16bb a8bc 7a3c
000000f0: 1d75 17bd dec7 46bd b94b 9f3c 41bd 46bc
00000100: 2cd8 4ebd 3c28 dd3c 1305 d2bc fc76 163c
00000110: 1878 523d 2181 3c3d 4fa2 f63c b965 d7bc
00000120: 41b5 513d 5911 b63d 9cdb 7dbd e043 673a
00000130: 41f0 983d a929 1c3d 5aa1 143d c0ee ac3c
00000140: 440d 37bc 879b 3ebd 8c73 0a3b 3ce2 1a3d
00000150: cc33 313c 2d3f 4f3d a04d f83a 1fab 023d
00000160: b804 7b3d 5d1a bb3c 09f9 343d 5a43 493b
00000170: fc34 4d3d 0d8f a3bc 41ab 33bd 6352 7dbc
00000180: f7aa c03c 06c7 43bd a1a1 11bb 2ff8 cbbc
00000190: 62d0 063d e096 92bc 2615 b4bc 05d1 913c
000001a0: cc67 66bd 06af 03bd c567 07bd 09ff e0bc
000001b0: 7660 1a3d c26d e43c a8d3 65bd 8bee 663d
000001c0: 9d53 35bb 34be 1dbd 3524 b83c 8d79 4b3c
000001d0: b4bf d7bb f104 12bd e690 1d3d 2dc4 8bbc
0.024111113 0.09979562 -0.03362393 0.004624216 -0.0010978137 -0.0205462 0.041655317 0.007548087
-0.035697218 0.10508694 0.009107974 0.019646356 -0.016884703 -0.037142385 0.063419156 0.01374592
-0.042649936 0.11721462 -0.031932853 0.083611116 -0.07500647 0.033880334 0.056711223 0.07256634
0.004327625 0.08240253 -0.0034618664 0.00036021965 0.09549465 -0.04513087 -0.01415386 -0.037769478
0.030646883 0.08525858 -0.0067087 -0.0103529 -0.033284087 0.030669149 0.046398167 0.008788482
-0.009609353 -0.010148663 -0.00582843 0.019859623 0.012108469 -0.06233016 0.025439262 -0.044674445
0.073686406 -0.002167676 -0.00060778833 0.018332131 -0.010055052 0.0005619059 -0.038031213 -0.019854942
0.007623631 -0.04033599 -0.0023011628 0.015303768 -0.036976922 -0.048530452 0.019445287 -0.012130083
-0.050499126 0.026996724 -0.025637185 0.0091836415 0.05138406 0.046021584 0.030106692 -0.026293622
0.051198248 0.088900276 -0.061977014 0.0008822065 0.074677 0.038125668 0.03628669 0.021109939
-0.011172596 -0.04653504 0.0021126 0.03781341 0.010815572 0.05059736 0.0018944032 0.031901475
0.061283797 0.02283972 0.04418281 0.003071031 0.050099358 -0.019965673 -0.043864492 -0.015461537
0.023519022 -0.047797225 -0.0022221582 -0.024898617 0.032913573 -0.017894208 -0.02198274 0.017799864
-0.056251332 -0.032149337 -0.033057947 -0.02746536 0.03768965 0.027884368 -0.056110054 0.056379836
-0.0027668246 -0.03851147 0.022478202 0.012419117 -0.006584132 -0.035649244 0.038468264 -0.017061317

fc2.weight f4 [84, 120]
00000000: 123c 76bd 54b9 e9bb ca52 d8bb 4b0e b43c
00000010: e10f ac3d d134 62bd 0279 933d 1900 6e3d
00000020: 38b5 92bd ec85 973c ad9f 9c3d 9706 82bd
00000030: 00d1 47bd 61dc 943d 502d 5dbd c4d2 d9bc
00000040: c08c e6bc 11e8 e7bc 2e9e 1cbd 2f09 343d
00000050: 2975 0ebd dce1 85bd e1c6 8bbd 407a da3c
00000060: a0cf 38bd a4d0 133c 6e69 b5bd d310 8bbd
00000070: 9fdb 273d d1e0 a23d d9e6 e5bc 7700 0b3d
00000080: 4fdc 9ebd 3fd1 a43d fb05 233c 7ca2 d3bb
00000090: 6e18 b7bd fb9b a4bc fdbd b13d bb95 7ebd
000000a0: 6131 813d 71fa d23b 9cd7 aabb fa61 77ba
000000b0: c002 1ebd 07ce 9cbd 8561 903d de97 b43d
000000c0: 7fee c23c fac4 1fbd 5a60 a2bd f541 89bd
000000d0: 9657 e1bc 2d3b fcbc bfc3 b13d b73e 25bd
000000e0: 19da 5b3c 2ac9 31bd 516c afbd 12b2 813d
000000f0: a7bf 8dbc 6af5 a6bd 499c a33d 8888 99bc
00000100: 3812 543d 27d5 2abd d7a5 183d 6c2d 60bc
00000110: 1d11 07bd 1cc3 b5bd 948f 183b 9044 09bd
00000120: ffb6 f6bc 5877 3c3d 6acd 193c e466 c5bc
00000130: 240e 0f3b e345 91bd 7209 8bbd a722 f0bc
00000140: d4e4 aabd 13cb 8ebd 1344 643b 48d3 463d
00000150: 5ca3 9a3b 23e6 af3b 00a9 22bd 2510 63bd
00000160: a07b 973d 11a4 2d3b 0d40 8dbd b085 98bd
00000170: 2959 a3bd 63dd f43b 3145 87bd 0a28 79bd
00000180: c0fc debc 7a5e 54bd 8881 ab3d cfd9 49bd
00000190: e72b a93d 62e4 92bd 1163 d83b cff3 573d
000001a0: 3028 a1bd 750f 8f3d 71c5 13bd 588a bebb
000001b0: e7da 8abc 79ed a13d 5431 dabc 2255 973b
000001c0: 8c97 99bd 62d0 953d 4b86 b9bd 27c8 453c
000001d0: ef0f 8fbd d64b c53c f79d 603d 1aea 8c3d
000001e0: c55c a5bd 36b5 48bd 36db 5ebd 54ef 6d3d
000001f0: dd42 973d 1f83 b3bd 1d9e dfbc 7be9 36bc
00000200: 6c0f a6bd 953e 033c df94 0cbc 9020 a5bd
00000210: 93c2 99bc 8aa1 203b d73d 8b3d 474d 6ebd
00000220: 2a6d 9d3d 6934 2c3b 059f f9bc 9086 89bd
00000230: b29e 92bd 4dca 973d d605 93bd 443d a03c
00000240: 2dfd f0bc 2e38 56bd eee0 07bd a3f0 1a3c
00000250: 084d 893d e76d 16bc 6880 0dbb c28f b8bd
00000260: ea97 703d 5c2d 553d 97df 963d 7190 8bbd
00000270: dbe1 703d d08d 313d b2fd 9fbd 23b0 51bd
00000280: 5659 c73c 4e51 acbc a710 a33d 9918 283d
00000290: 13d8 6dbc 6f53 73bd 750b 90bd 2039 763d
000002a0: a036 87bd 0a6a 8fbc 10b1 9e3d d3dc aa3d
000002b0: cf93 8fbd 4b19 debc 7f5c 313d d03a 9bbc
000002c0: c6c1 95bd 3382 4bbc 31f3 00bd a0f5 31bd
000002d0: 2d0d 90bd c961 6c3d a71e 993d ca75 49bd
000002e0: bc4e 65bd 2044 a43d db68 9ebd 1233 32bb
000002f0: b2df 373c 6fdf e7bc 1745 8e3c 8c78 3bbb
00000300: ba0c 723d 1cd7 693b d12c f3bc d2c2 233d
00000310: c4cc af3d dfe6 31bd 93c2 1c3d d0d3 1c3d
00000320: a48f 783d 96cc d83c a263 aabd 66e7 823c
00000330: 7a4a ebbc f40f 123d 8e6a a43c 28ff 34b8
00000340: 20ab 813d e0ae b33d ce46 ab3c 78cc 943d
00000350: 2efc 283c e170 4cbd 408e c0bb f068 7cbd
00000360: f862 cf3a d34c a0bd c406 8e3c 5aa8 63bc
00000370: b32b 953d 4b33 3dbd 19a2 ab3d 298b d4bc
00000380: 662f 32bd 0e32 b3bd 5a8d cb3c f0cf 8fbc
00000390: cde8 603d c847 77bd 1450 b7bc 7147 b2bd
000003a0: 1a19 4fbd c229 933d 0f60 83bd a529 653d
000003b0: 3389 7c3d b55e 903c 7173 dfbc 21cd b03c
000003c0: f974 b2bd 6f26 973d b093 1cbd ec6c 143d
000003d0: 1226 02bd 9b07 85bd cbca 8e3d a559 f73c
000003e0: b75d 043e b81f cabd 3d31 633a 5912 3cbd
000003f0: ba61 b2bd 7ab9 2ebd 1756 853c 3e0d 213d
-0.06011588 -0.0071326885 -0.006601666 0.021979472 0.08401466 -0.05522615 0.07200815 0.058105562
-0.07163471 0.018496476 0.07647643 -0.06348913 -0.048783302 0.072685964 -0.05399829 -0.026589759
-0.028143287 -0.0283089 -0.03823679 0.04395407 -0.0347797 -0.0653722 -0.068250425 0.026669621
-0.04511988 0.009021912 -0.08858 -0.06790318 0.04098093 0.079530366 -0.028064178 0.03393599
-0.07756864 0.08047723 0.009950156 -0.0064585786 -0.089402065 -0.020093909 0.086788155 -0.062154513
0.063082464 0.0064385463 -0.005213691 -0.0009436902 -0.03857684 -0.07656484 0.070498504 0.08818029
0.023795364 -0.03900621 -0.07928534 -0.067020334 -0.027507585 -0.030789936 0.08679914 -0.040343013
0.013418698 -0.043404736 -0.085655816 0.06332792 -0.017303301 -0.08152278 0.079887934 -0.018741861
0.051775187 -0.041707184 0.037267532 -0.013682704 -0.032975305 -0.08875105 0.0023278939 -0.033512652
-0.030116556 0.046012253 0.009387353 -0.024096914 0.0021828497 -0.07093408 -0.06788911 -0.029313399
-0.08344427 -0.06972327 0.0034830614 0.048541337 0.004719181 0.0053680106 -0.039711952 -0.05543532
0.073966265 0.0026495496 -0.06896982 -0.07447374 -0.0797599 0.0074726804 -0.06604994 -0.0608292
-0.02722013 -0.051847912 0.083743155 -0.049279984 0.08260327 -0.07172467 0.0066036065 0.05272275
-0.07868993 0.0698537 -0.036076967 -0.0058148317 -0.016950084 0.079066224 -0.02663485 0.004618303
-0.074996084 0.073151365 -0.090588175 0.012071646 -0.06985461 0.024084013 0.054838147 0.06880589
-0.08074335 -0.04900094 -0.054408275 0.05808957 0.073858 -0.08765244 -0.027297074 -0.0111640645
-0.0810841 0.008010526 -0.0085804155 -0.080628514 -0.018769538 0.0024510347 0.067989044 -0.058179166
0.07686837 0.0026276356 -0.030471334 -0.06715119 -0.07159175 0.07411633 -0.071788475 0.019560464
-0.029417599 -0.05229967 -0.033173494 0.009456786 0.06704146 -0.009181476 -0.0021591429 -0.090117946
0.058738627 0.05204521 0.07366865 -0.068146594 0.058809143 0.043348134 -0.078120604 -0.051193368
0.02433459 -0.021034863 0.079621606 0.041039083 -0.014516848 -0.05940574 -0.07033435 0.060113072
-0.06602216 -0.017506618 0.07748616 0.083429 -0.07010614 -0.02711167 0.0433011 -0.018948942
-0.0731235 -0.012421179 -0.031481925 -0.043447137 -0.07033763 0.057710443 0.074765496 -0.049184598
-0.05598329 0.08020806 -0.07734843 -0.0027191085 0.011222767 -0.028304784 0.017366929 -0.0028605787
0.05909417 0.0035681194 -0.029684456 0.039980717 0.08583978 -0.043433066 0.038271498 0.038287938
0.06068386 0.026464742 -0.08319785 0.01597948 -0.028722037 0.035659745 0.02007034 -4.3152977e-05
0.06331468 0.08773589 0.020907786 0.07265562 0.010314031 -0.049912337 -0.0058763325 -0.061623514
0.0015822342 -0.07827153 0.01733721 -0.013895119 0.072837256 -0.046191495 0.08380527 -0.025945263
-0.043502234 -0.087497815 0.024847675 -0.017555207 0.054909516 -0.06037119 -0.022377051 -0.087050326
-0.050561048 0.07185699 -0.06414806 0.05594792 0.06165428 0.017623285 -0.027276726 0.021582188
-0.08713717 0.073803775 -0.038226783 0.03623669 -0.031774588 -0.06495591 0.069722734 0.030194113
0.12926374 -0.09869331 0.00086667 -0.045915935 -0.08710046 -0.042657353 0.016276402 0.03931927

fc2.bias f4 [84]
00000000: dc4a a6bd b854 d4bc 5616 8dbd 9060 973c
00000010: 3b91 9dbd c32c 913d cbeb cebc 46ba 8dbd
00000020: 17ec 48bc 8aa1 4d3c fd3c f1bc 2727 fbbd
00000030: f863 c5bc 2a72 073d 0a63 05be 1f34 b03c
00000040: 326b 99bd 5ef9 3abc 434e 43bd fc57 7bbc
00000050: 89bf fabd 813c 5cbd 84ae 99bd 363a 41bd
00000060: 28bd 373e feb3 89bd 327a cb3c e647 ed3d
00000070: aca2 f9bc 0fe9 9fbd 025b 383d 4b9f 3e3c
00000080: a6e7 87bd 8f8d 47bb acb0 b9bc 04b4 133d
00000090: f028 6bbd dd53 be3d 4236 153c 1fe3 80bd
000000a0: a41e c6bd 568d 05bd e04d 4ebd b41e fd3d
000000b0: 0c3c 81bc d88d d4bb 6257 3d3d ceac 29bd
000000c0: 3ed2 9b3d c51a 363e 7f96 f8bc cbb8 343d
000000d0: 9e83 b73c d7a6 aa3c 7e61 6cbd e72c 2c3e
000000e0: 47b6 39bc cdbd 03bd cc10 dcbc 9b0b 50bd
000000f0: c20c a1bd 9d0a d9bd d46d 82bd ebb2 9fbb
00000100: 47e8 b83d 687c 2c3e f31d 55bd 9c05 e93d
00000110: 0139 00bd c6b9 76bd 6610 af3d 680e df3d
00000120: 7385 543d 04a1 883e 4910 5e3d ba5f bd3d
00000130: ef4e ecbc 720e a53d 4926 5f3d 76e1 4b3c
00000140: e6b2 3d3e d80c dfbd 4c47 d53c bffd 06bd
-0.08119747 -0.025919303 -0.06889026 0.018478662 -0.07693716 0.07088616 -0.02525892 -0.069202945
-0.012263319 0.012550721 -0.029448027 -0.12263327 -0.02409552 0.03306786 -0.13026062 0.021509228
-0.07491149 -0.011411993 -0.047682058 -0.015340801 -0.12243564 -0.05376864 -0.07503989 -0.047174655
0.17943251 -0.06723784 0.02483854 0.11585979 -0.030473076 -0.07808124 0.045008667 0.011634658
-0.0663598 -0.0030449366 -0.022667252 0.03606035 -0.057412088 0.092933394 0.009107174 -0.0629332
-0.09673813 -0.03260549 -0.050367236 0.12359372 -0.015775703 -0.0064866357 0.046225913 -0.041424565
0.0760846 0.1778365 -0.0303452 0.044121545 0.022401627 0.020831509 -0.057710163 0.16814004
-0.011334962 -0.03216343 -0.026863478 -0.050792318 -0.078637615 -0.105977274 -0.06368604 -0.0048736236
0.090286784 0.16844332 -0.052030515 0.11378023 -0.031304363 -0.06023576 0.0854805 0.1089142
0.05188508 0.26685345 0.05421475 0.09246774 -0.028846232 0.08059396 0.05447987 0.012443891
0.18525276 -0.108911216 0.026034974 -0.032956835

fc3.weight f4 [10, 84]
00000000: be2e 1cbc 9d87 77bc a30d e73b 2b43 27be
00000010: 9d6d 1fbd 08d7 93bc 659f ff3d 94dc 333d
00000020: 26bb 6ebc 5b60 5d3e e43f 16bd 2303 743c
00000030: 5a66 873c 8d24 fd3d a6c7 cebd 0681 04bd
00000040: a21c db39 5726 643d 9289 48bc b7f8 8d3a
00000050: 0688 d33b 35aa 60bd e15a 8bbd 44b9 eb3d
00000060: 6cd4 6cbc cf64 cebd 1115 1a3e 7535 fbbd
00000070: e8cf 83ba ec82 adbd cdb2 d53d 2316 26bd
00000080: 5dcf 6f3d d771 b0bd da42 8fbc 9307 d43d
00000090: eda8 a73d 8364 0cbe 17c6 16bd e38e 66bd
000000a0: a962 e73b d501 2a3d 61b1 54bd 3965 cebb
000000b0: 0710 5fbd 6563 0c3d 50cd 8c3d d217 bfbd
000000c0: eb72 04bd a268 f3bc 031a 013e 6948 463e
000000d0: a54c bd3d f82b 093e 97b9 193d 8473 6d3b
000000e0: f248 a73d c04f 8cbc 57ef fd3d f66e 50bd
000000f0: 9bb7 b63d 27b1 3bbd b0f1 d0bb 1522 543e
00000100: a2d8 1c3e 577c 7fbd 73e5 93bd c9e8 f13d
00000110: d634 c13b 8ad3 e13d ba32 adbd 1f48 2cbe
00000120: f975 523d ead0 ee3d ca6a 1b3e 6021 14be
00000130: 623f 2dbd 6dd2 bcbd 4549 6cbd 8ebc aabd
00000140: 6c26 ddbd 8dc2 fdbd 2626 c13d 40a2 a53d
00000150: 5241 a93c ec83 24bd 3412 413e f2f5 283d
00000160: 015a 2dbd 1f93 093d 4cfa afbc feac febc
00000170: 8bc6 a8bc d3fa 0fbd a606 213d ea34 cd3d
00000180: 7447 e9bd 01b0 983d 66c0 d63d 2225 373e
00000190: 6853 573d 66a4 dcbd 2bb1 85bd 5bd3 fc3d
000001a0: e5e4 0d3e 2b6d b63d fbfd 1c3e 35f5 35bd
000001b0: 9c07 f0ba eeb6 da3d a37c d7bb d2db 80be
000001c0: caae 1abd 5461 67bd ceff e7bd 6076 173d
000001d0: 036f 2d3e 13f0 383e 53ce 813e d2ae ce3d
000001e0: cc5e f53d 98d0 7e3b 7650 1e3e b122 52bd
000001f0: 3198 93bd 46c2 d7bd 39bf e13c 3f12 a4bd
00000200: b588 b33d c0f4 143e 9bbc 723a 55be a4bc
00000210: a3e0 6c3d 368d 97be 51b9 1e3c 4878 3a3d
00000220: 0550 4f3d de5e 8d3a 3a87 943d c877 e93c
00000230: 3b30 03be 48f0 59bd 1889 863d fbac dabd
00000240: 494d 06ba 4d0d 503e 6cd2 85bd 999e 8b3d
00000250: fb00 0dbe 0fdc 183d 551b bcbd 05ef ebbd
00000260: fbdc 5e3c 999d 8dbd 2091 1fbe 7dcb ddbc
00000270: fad0 61be 12cb 3cbe 1105 9d3c f8f9 c5bd
00000280: d101 113e 9605 5ebe cedc 08be 58d4 f2bd
00000290: f9cb 27be a308 90bd ac27 02be 3e9e 703d
000002a0: a7c4 5cbd 7fc4 e7bc cf22 f33c 59ea 07be
000002b0: f45f 23be aa68 263e 719a d6bd 1aa5 55bd
000002c0: d6e3 bdbd 84c3 57bc 9e6d d5bc 9535 943c
000002d0: 3aa7 13be abdc 243e 2fa8 38be baac 1dbe
000002e0: e0c9 bdbd 70fd 803d 8eed 953d b5d0 e4bd
000002f0: 931c 68be 9378 833d f4ef 433d 2371 e5bd
00000300: 580e 0e3e aef7 a1bd b56b 0bbd 691b 5a3e
00000310: 86ae c53c 536d d63d 714f 9e3d 6596 243e
00000320: 8859 8f3d a6e3 393b 35ff 093d 7a0e 3a3c
00000330: 7346 26be 5690 1d3e b953 ec3b e685 81bd
00000340: fd2e 0e3d 4da0 193e 0033 8f3a 220b 103e
00000350: 4136 d7bd 7298 b8bd 66b0 023e 1ffd da3d
00000360: ee04 d23d 5db5 dd3d 05c2 05bc cb3a b8bd
00000370: 6b51 f4bc 7b2c 003e f6d7 40bd cbb0 db3b
00000380: 7409 953d 1ce8 0fbd fb79 0f3e fa88 233d
00000390: 5c1c 5c3d 7d4f 253d d635 29bc a220 f53d
000003a0: a95c 183d ec86 6fbb 3aee 05bd ba69 d4bc
000003b0: 78b0 1b3e f78a b0bc c93e d7bd d27c 5b3e
000003c0: e460 0abd b233 603d a9ae b9bd a910 033c
000003d0: f94d b93d 51cf a53d 4ff6 033e 7415 60be
000003e0: 4698 873d accf 08be fd52 f93d d822 073d
000003f0: 3961 463c e657 243d 34e7 b43d 517d 233e
-0.009532629 -0.015108016 0.007051186 -0.16334216 -0.038922895 -0.01804687 0.12481574 0.04391153
-0.014570987 0.21618788 -0.036682025 0.014893326 0.016528297 0.12360487 -0.10096674 -0.03234961
0.00041792268 0.055700626 -0.012239831 0.0010831569 0.0064554242 -0.054849822 -0.06804443 0.11509946
-0.014454942 -0.100778215 0.15047099 -0.122660555 -0.0010056468 -0.08472237 0.10434494 -0.040548455
0.058547366 -0.08615463 -0.017487932 0.10353007 0.08186517 -0.13710217 -0.036810007 -0.05628861
0.0070613218 0.041505653 -0.051926974 -0.006298688 -0.054458644 0.034274478 0.06875098 -0.09330715
-0.032336157 -0.029712979 0.12607579 0.1936356 0.092431344 0.13395679 0.037530508 0.0036232183
0.0816821 -0.017127872 0.12399166 -0.05088707 0.08921739 -0.045823243 -0.0063764676 0.20716126
0.15317014 -0.06237444 -0.07221498 0.11811978 0.005896191 0.11026676 -0.08456941 -0.16824387
0.05138204 0.11660941 0.15177456 -0.14465857 -0.042296775 -0.09219823 -0.057687063 -0.08336745
-0.10798344 -0.12390623 0.09431104 0.08087587 0.02066103 -0.040164873 0.188546 0.041250177
-0.042322163 0.03358757 -0.021481656 -0.031088348 -0.020602485 -0.035151314 0.03931298 0.10019858
-0.11390582 0.07455445 0.10485916 0.17885259 0.052569777 -0.10773544 -0.06527933 0.12345
0.13856848 0.08907541 0.15331261 -0.0444233 -0.0018312815 0.10679422 -0.006576137 -0.2516771
-0.037764348 -0.056489304 -0.11328088 0.036978126 0.16936879 0.18060331 0.25352725 0.10091938
0.11980972 0.0038881656 0.15460381 -0.051302616 -0.072067626 -0.105351016 0.027557002 -0.08011293
0.08766309 0.1454649 0.0009259672 -0.020110289 0.057831418 -0.29599923 0.009687738 0.045524865
0.050613422 0.0010785719 0.07252355 0.028499499 -0.12811367 -0.053207666 0.06569117 -0.10677525
-0.0005123211 0.20317574 -0.065342754 0.068173595 -0.13769905 0.03731924 -0.09184901 -0.11520199
0.013602491 -0.06914825 -0.15582705 -0.02707457 -0.22052374 -0.1843684 0.019167455 -0.096668184
0.14160849 -0.21681818 -0.1336548 -0.118569076 -0.16386403 -0.07032897 -0.12710446 0.05874466
-0.05389848 -0.028291939 0.029679684 -0.1327299 -0.15954572 0.16250864 -0.10478676 -0.052159406
-0.09271972 -0.013169173 -0.026053246 0.018091956 -0.1441926 0.16099803 -0.18032907 -0.15397921
-0.0926702 0.06298339 0.073207006 -0.1117262 -0.2266715 0.06419482 0.04783626 -0.1120322
0.13872659 -0.07908569 -0.034038264 0.21299519 0.02413107 0.10470071 0.07729996 0.16072996
0.069994986 0.0028364449 0.03369065 0.011355991 -0.16237812 0.15387091 0.007212129 -0.06324367
0.03471278 0.15002556 0.0010925233 0.14066747 -0.10508395 -0.09013452 0.12762603 0.1069281
0.102548465 0.10825608 -0.008163934 -0.08995589 -0.02982398 0.12516968 -0.047080956 0.006704425
0.07277194 -0.035133466 0.14011376 0.039925553 0.053737983 0.04035901 -0.010327777 0.11969115
0.037197743 -0.0036548926 -0.032697894 -0.02592932 0.15204036 -0.021550639 -0.10510022 0.21434334
-0.03378381 0.0547368 -0.09066517 0.007999578 0.09048075 0.08096183 0.12886928 -0.21883184
0.06620841 -0.1336047 0.12174032 0.032992214 0.012108141 0.04012289 0.08833161 0.15965773

fc3.bias f4 [10]
00000000: f380 54be 8d57 b3bd 1378 373e 3d29 bb3c
00000010: 17cf b53e bba5 b6bc f63a 963e 7d5d d6bd
00000020: 65c1 a7bc 228b 7bbe
-0.20752315 -0.08756933 0.17916898 0.022846812 0.3550956 -0.022295823 0.2934186 -0.1046705
-0.02047796 -0.24564794
